GCN_best_model.pkl (torch, 71973 bytes, 8 tensors)

bias f4 [64]
00000000: ad91 97bd 15b3 75bc 7800 c73c 7ba1 3d3c
00000010: b6b2 71bd 8451 923c 07f8 a2bd e299 4bbd
00000020: ca3c 94bd a8d1 b43a 563c f9bb 96b6 7a3d
00000030: 542d c3bd 3c5c 24bd e4fe 08bc 13e9 bb3c
00000040: 02ad f7bc df25 643d 4e73 d93c 6e22 b73d
00000050: f0f2 3a3a 6996 d7bc 2326 0bbc 8343 c2bd
00000060: 24f6 713d e1c1 c53c 2ca7 773d e127 973d
00000070: 41c0 00bd 9ffe aebd b955 f13b 18bb 433d
00000080: cf6b 093d c7d7 9e3c ba61 c6bc 6585 c3bb
00000090: 6ffa 9f3d 7e18 4ebc 1960 9fbd bcf2 8cbd
000000a0: f2f3 ccbc 5d63 083d 898d 7d3d 0a3c 413d
000000b0: 684f c7bb 83fc 0b3d 8df4 e83c d91a aebd
000000c0: 88e3 0e3d f52c 813a e56b ce3c ab0e c43c
000000d0: 456a 3a3c 5690 e2bb 7eb8 7c3d 2e0a 82bd
000000e0: 7c00 21bc 2fe9 7bbc 7e29 d1bc f1b5 103d
000000f0: 1049 6cbd 07b1 50bd 60ce 9e3d 3f4d 1a3c
-0.07400832 -0.01499631 0.024292216 0.0115741445 -0.059008323 0.017861135 -0.07957464 -0.0497073
-0.07238157 0.0013795393 -0.0076060696 0.061209284 -0.0953013 -0.040127024 -0.008361552 0.022938287
-0.030233864 0.05570018 0.02654424 0.08942114 0.00071315374 -0.026316838 -0.008492979 -0.09485533
0.05907263 0.0241403 0.060462162 0.07380653 -0.031433348 -0.08544659 0.0073649553 0.04778585
0.03355008 0.01939 -0.024216522 -0.0059668296 0.07811438 -0.012579082 -0.07782001 -0.068822354
-0.025018666 0.033297885 0.061902557 0.0471764 -0.006082464 0.03417636 0.028436923 -0.085012145
0.03488496 0.0009855317 0.025197932 0.023932775 0.011377876 -0.006914179 0.061699383 -0.06349598
-0.009826776 -0.0153754195 -0.02553248 0.035329763 -0.057686865 -0.050950076 0.07754207 0.009417831

weight f4 [64, 128]
00000000: 1711 c5bc 3294 87bd 6141 a53d b14b fd3d
00000010: b379 353e be37 063d 8c00 f13b 0e77 193e
00000020: ea72 453d 9861 45be 9b44 e0bd 4c03 1fbd
00000030: 5ed6 c4bd d0ee ac3c 4d9c 393e 94da cf3b
00000040: 5049 cabd 2824 debb a160 71be 2ecf 22be
00000050: 6eb9 193d 91ec acbd 5136 b4ba 34b1 8bbd
00000060: 698b 91bc 8416 1ebe 15cd e23c 0113 c2bd
00000070: 50f3 a23c f2b8 963c 56fe a53c 43f9 fc3d
00000080: e3f7 2a3d 71db e8bc 7293 a23c a508 1abd
00000090: ddfa b23c f870 9c3d 31a3 28bc b945 213c
000000a0: 6d7c 5cbd 2a5b f03d 41d8 aabc 497e 4bbc
000000b0: 9e45 563c 2f9b 1f3e fd00 063e 132d da3d
000000c0: 0cc4 7bbd dad6 633d a25e 2ebd dcae 023d
000000d0: ef1b 0dbe d2b1 d33c 43c6 bbbd 620a 933d
000000e0: 6957 9bbc 3f39 48bd bdeb 80bd 2e59 90be
000000f0: 6acf cf3b bdc3 763c b8f8 253d d25a 4b3d
00000100: 48ff 2b3d db98 38bc 91a4 b73d 17c2 453d
00000110: 20ca 0d3e aa88 cc3d aacb 013c 51a7 82bd
00000120: 771f 24bd 3bad 043e 3af5 e63c f815 72bd
00000130: 6800 593e 38c2 5bbd 1cd4 b53d db64 8bbc
00000140: 3300 943d 72fc 933d 3dbc 0e3e 8817 8e3c
00000150: 3d95 50bd b346 843d 72b0 73bd 7093 273e
00000160: 728d 673d 5ee1 53bd 8290 9f3d 8770 a43d
00000170: 91ed 783d efce 9abd 6cf7 c1bb 4e6f 03be
00000180: 6cbe 633e 9340 2c3c 7379 203e 94ba 1a3d
00000190: b450 943d 1895 4fbd 88de 01be c488 81bd
000001a0: 058a 1b3d 64c9 283d efc7 553d 8300 0fbd
000001b0: 6623 f93d 975a 1abc 73ca 31be 836a 5f3d
000001c0: 9bf1 a5bd 6582 203d 8281 afbd e52a f7bd
000001d0: 4ab0 84bd c5d7 e4bd 4393 053d ea3f 733d
000001e0: 63e2 1cbe a7f0 17be 4018 8dbd dbc0 143e
000001f0: 222d 613e f141 f7bd 7026 2a3d dd1d 07be
00000200: cf75 93bb bc56 e7bd d66b b6bc c6ad 5cbe
00000210: 6e54 f13c 351c 0cbd c49d 9c3d 6d0f b3bc
00000220: 4077 b83d 5bb8 17be 8021 07be 3d76 5dbd
00000230: c06a e8bc 888e 6c3d 60b3 a93c 977f 4a3c
00000240: 83ee b23e b02a babd 0692 d5bd 151d 943d
00000250: 15bb 3b3e ead7 c93c bc77 2fbd 0e2f 30bd
00000260: 5204 013e 29a0 dc3d 92e0 623d 0a05 dd3d
00000270: b7a0 103e 2c0d 60bd 7148 1fbe 8f77 58bc
00000280: 2e1b bebd 2404 4abd d7ca ab3a e275 7b3d
00000290: ecfa 61bd fba4 903e 9a88 84bd 61c9 813e
000002a0: 8caa c83c 024f 7cbe cf9b 90be 38c4 f43d
000002b0: b3d4 7b3e 3af3 c03b 3236 88bd 9199 51bd
000002c0: f375 193c 8dcc 173d da07 85bd 5286 d93d
000002d0: 99fa 093d 98a4 55bb da6c e9bd d3bf 8ebe
000002e0: 7a5d de39 46a9 183d f127 2bbd 3831 3ebe
000002f0: 8834 1a3d feb6 f63d 6531 44bd b372 b33c
00000300: 64f5 303e 61db dfbd cc20 22be 791b 61bc
00000310: 2c0d c13c e144 4abe 9a5f 1bbc 8d2e 303e
00000320: 6982 dbbd 8256 313e 53d9 443e 7e4b 40be
00000330: 1dd6 89bd 9a7c babd b661 a3bd 5583 d7bd
00000340: b919 c33c 2246 313e 3b62 b7bd 9857 ef3c
00000350: f1e6 90be c035 fd3d 1f07 93bd 30bf 11bd
00000360: 73e3 863d 56ba bc3d 8ffa 013e 50d5 183e
00000370: afcc 8c3d a519 1bbc 063f 553e d8ed 6cbe
00000380: 3863 953e 2760 e4bd 0120 0a3e 84df 913d
00000390: 7f94 d33e 6641 cf3d 7f74 103d 56e6 ddbd
000003a0: 97f4 893d 510c e6bd 844f 523e 6b54 2c3e
000003b0: 1f48 323e e119 013d 0a7b a63d b382 89be
000003c0: b459 b73c 2785 183d a6b6 99bd 3b13 e63d
000003d0: c406 9d3b d556 c5bd 9779 9dbc 91c9 543d
000003e0: c8f5 debd 3dc7 8abe b4a5 193e a4b7 5e3c
000003f0: 8b4d 70be 562b 86be c153 66be 8aa2 cf3b
-0.024056 -0.06620063 0.08069111 0.123679526 0.17722206 0.032768004 0.0073548015 0.14986822
0.048205294 -0.1927551 -0.109505855 -0.038821504 -0.096112 0.021109968 0.1812603 0.006343195
-0.098772645 -0.0067792125 -0.23572017 -0.15899345 0.037530355 -0.08443559 -0.0013749098 -0.06820908
-0.017766671 -0.15438277 0.027685681 -0.09476281 0.019891411 0.018398736 0.020262878 0.123522304
0.04174031 -0.02842495 0.019845698 -0.0376059 0.021848137 0.076387346 -0.010292814 0.009843283
-0.0538296 0.11736138 -0.020855071 -0.012420245 0.0130781215 0.15586542 0.13086314 0.106531285
-0.06146626 0.05562482 -0.042570718 0.03190504 -0.13780187 0.025841627 -0.09168675 0.07179715
-0.018962579 -0.04888272 -0.062949635 -0.2819304 0.0063418644 0.015061316 0.0405204 0.04964716
0.041991502 -0.011266912 0.089669354 0.0482808 0.13846636 0.09987004 0.007922092 -0.06379569
-0.04006907 0.12956707 0.028193105 -0.059102982 0.21191561 -0.05365202 0.08878347 -0.017015865
0.072266005 0.072258845 0.13938995 0.017345205 -0.050923575 0.06458797 -0.059494443 0.16364837
0.056531377 -0.0517286 0.077912346 0.080292754 0.060773436 -0.07559001 -0.0059193876 -0.12835428
0.22240609 0.010513443 0.15671329 0.03777559 0.072419554 -0.050679296 -0.12682545 -0.06324914
0.037973423 0.041207686 0.052192625 -0.034912597 0.12164955 -0.009421012 -0.17362384 0.054544937
-0.08102723 0.039186854 -0.085696235 -0.12068728 -0.06478937 -0.11173967 0.032611143 0.059387125
-0.15320735 -0.14837895 -0.06889391 0.14526694 0.21989873 -0.12073124 0.041540563 -0.13194986
-0.004500128 -0.1129584 -0.022268217 -0.21550664 0.029459205 -0.034206588 0.07647279 -0.021857942
0.0900712 -0.1481642 -0.13196373 -0.05406784 -0.028371215 0.057753116 0.020715415 0.012359521
0.34947595 -0.09090173 -0.104282424 0.072321095 0.18333085 0.024639089 -0.042838797 -0.043013625
0.12599304 0.107727356 0.05538995 0.10791977 0.14123808 -0.05470006 -0.15554978 -0.013212099
-0.09282528 -0.049320355 0.0013106716 0.06139172 -0.05517094 0.2825087 -0.06471367 0.25348952
0.024495386 -0.24639514 -0.28243873 0.11951488 0.24592857 0.00588837 -0.06650962 -0.051171843
0.0093665 0.03706031 -0.06495638 0.10621323 0.033686254 -0.0032599326 -0.11397715 -0.27880725
0.00042412785 0.037270807 -0.041786138 -0.18573463 0.037647754 0.12046622 -0.04789867 0.021905279
0.17281109 -0.10930515 -0.15832824 -0.01373946 0.023565851 -0.19752838 -0.009483242 0.17205258
-0.10718233 0.17318156 0.19223528 -0.18778798 -0.06730292 -0.09105797 -0.07977621 -0.105230965
0.023815976 0.1731191 -0.08954283 0.029216573 -0.28301194 0.123637676 -0.071790926 -0.03558272
0.06586351 0.09215228 0.12693237 0.14925122 0.06874978 -0.009466563 0.20824823 -0.23137605
0.2917726 -0.11151152 0.13488771 0.0712271 0.4132423 0.10119896 0.03526735 -0.10834949
0.06736105 -0.11232818 0.20538145 0.16829078 0.17410325 0.03151882 0.081289366 -0.26857528
0.022381641 0.03723636 -0.075055405 0.11234137 0.0047920663 -0.096357025 -0.019223018 0.05195004
-0.10886723 -0.27105132 0.15004617 0.013593588 -0.2346708 -0.26204938 -0.22492887 0.006336515

bias f4 [64]
00000000: a4e9 64bb 9642 35be d158 31bd 7c95 f23c
00000010: a2d9 adbb a29a 60bd 6053 3b3a b690 debd
00000020: 0f72 ccbc 3833 123e 24ba 9bbd 7b50 663d
00000030: 9766 51bd 2904 e6bc d57c adbd 08be 843d
00000040: d260 383e 0b6b 3ebc b394 b6bd d7c5 e2bd
00000050: 64b4 89bd 3aac 183e 130a 26bc d3c0 623d
00000060: 2a70 46bd 6a96 edbd 6244 9c3d 9c0e ce3d
00000070: 9b59 893c 52ec 10be 565e 1e3e f3e2 edbd
00000080: 91ef 523d b31f 04bb cdbe 3a3e d267 e2bd
00000090: 4c58 943d f149 963c 927f 5abc 9aaa 243e
000000a0: 8d20 e1bc 34e5 9e3d d51e e0bd a726 343e
000000b0: eddc fe3d 6d4a 9c3c 56b0 ae3d ee22 663d
000000c0: 646c 26be ea1c 0c3d f0e1 6e3d 285a c83d
000000d0: e4c7 86bd b39f 4dbd f12d 1c3d 5790 1d3d
000000e0: 75f3 af3d 553c a4bd 206f 6f3d 1ecf bb3d
000000f0: 12ab 42be 2ca8 75bc 2f2a 343e 1822 8c3d
-0.00349293 -0.17701182 -0.043297593 0.029612295 -0.005305485 -0.05483497 0.0007145908 -0.10867445
-0.024956731 0.14277351 -0.07603863 0.056229096 -0.051123228 -0.028078156 -0.084710754 0.06481558
0.18005684 -0.011622201 -0.08915081 -0.11072891 -0.0672386 0.14909449 -0.010134238 0.055359673
-0.04844681 -0.11600955 0.076302305 0.1006138 0.01676636 -0.14152649 0.15465674 -0.11615553
0.051498 -0.0020160496 0.18236847 -0.110549584 0.07243404 0.018345805 -0.013336079 0.16080704
-0.027481342 0.07758561 -0.10943381 0.1759287 0.12444482 0.019078458 0.08529727 0.056185655
-0.16252285 0.034207262 0.05832094 0.09782821 -0.06581095 -0.05020113 0.03812975 0.03846773
0.085913576 -0.0801932 0.058455586 0.09170364 -0.1901057 -0.014993709 0.17594217 0.0684244

weight f4 [64, 64]
00000000: a465 cd3d c57b 03be 78cd 1f3d df07 4fbe
00000010: b60c 92be 20b7 03bc e281 8a3d c357 063e
00000020: 26f7 82be 60dc 0dbe f2b1 103e d879 e4bc
00000030: c4a7 23be 813d c4bd fdef 073e fb58 c8bd
00000040: c350 8fbe 8ef3 28be 8dd9 e1bd 341b b0bc
00000050: 855b cd3c 3a51 643d 2923 2c3c 513b 503e
00000060: 7160 cfbd ec1f 8f3d dbe6 703d d5de 86bd
00000070: aced c6bd a478 bebd 3b82 82be 89eb 063d
00000080: 82a4 323e 2cc9 a83e 4b98 d93d c86f d4be
00000090: 1634 ef3d 007c ed3e 1b8e d23e 5210 c2bd
000000a0: c9a8 e83b 44cd c23d 122a 0c3e 3855 6c3d
000000b0: 907d b7bc dc7d 353c 57e2 59be 8fa9 e3bd
000000c0: 15f0 f03c 1d6b c03c e8fe 85be 91aa 263c
000000d0: eacf b4be c186 8c3e edd0 3c3d 03c7 3b3d
000000e0: d606 093e 5b41 b9bb a715 973e 9c14 573e
000000f0: d6ba 46be c17d 46be c43a 6abd 4366 06be
00000100: f8be 0fbd 6143 a63d 0e68 f4bb 9222 eabc
00000110: 6aa8 553e 2974 9dbe f2e2 3dbe 9725 603e
00000120: 87d6 41be 4c4e c33d 065a 523c 8c18 2e3e
00000130: e14d 1dbe 6913 aabd e716 833d cb03 2b3e
00000140: 3fdc ecbd 5f9d 703e e102 cabc 1af9 62be
00000150: 0a70 8c3d e749 36bd d193 673d aaa9 df3d
00000160: 2ecb 663c cee7 113e e88d 863d 4970 4ebe
00000170: 825d f83c db59 2c3e d42d 603e a539 d13d
00000180: ea57 683d 1959 633e af58 f5bc 6c62 c6bd
00000190: ee1f 52bd d9bd 75be c5a0 403c a3a5 58bd
000001a0: 424f 1cbe f41f 91be a0b6 69bd 64cd 8ebe
000001b0: 23da f1bc 604c 49be db9f 17bd 248a 39be
000001c0: caf1 ec3d 46ff 5cbe d013 5fbe 1701 cabd
000001d0: ea50 673c 1179 1c3e 0ce4 d537 b72a f1bc
000001e0: 83d8 90be f785 943d f2c6 9b3d bc84 913c
000001f0: 198f 673e afbe 5b3e 5a93 7a3d 6863 0f3d
00000200: d0b4 24be b8e9 aabc 2441 8bbd c728 913e
00000210: 9ff4 973c 7cd0 b53d 94d2 053e dee5 82bd
00000220: 5bee 413e b2d5 06be 8c93 58bd 2e96 7abd
00000230: 6195 003e 8071 68be 3a92 443e db61 3fbd
00000240: 40ca ec3d 3e7f 98be 40f1 613e 918c c0bd
00000250: a7fc 5e3d d032 463e b362 a23e dc8b 373d
00000260: 92d3 fcbd 4ddb 80be 2323 fe3c b72d 303e
00000270: 770f 0bbe 435e 933d f95a 99bd df18 79be
00000280: e0b7 adbd d4b1 8ebe c05c ce3d f8d1 a43e
00000290: 5cd9 e1be 6969 a4bd 784a 92bc ed3b 0d3e
000002a0: 32b2 823e 800e 673e 296f 0b3c b03a 353c
000002b0: 2a14 69be 68b5 44bd 8075 5d3d d0f4 be3d
000002c0: ad8f bebe d68a cb3c 0f5a 063e a671 123e
000002d0: 920d 82be 3a9f d5bd 7445 203e 17d0 033e
000002e0: ec5a 6a3e 193d d03d 101e 6bbd e35c 44bd
000002f0: 6cbf 5c3e 43fa cb3b 2c88 22be 7012 33be
00000300: 6bb5 8d3d 3d58 703e 67a0 d0bd 487c ee3d
00000310: dd98 6b3e 5d63 b8be 7052 89be 240f 41bd
00000320: 939b 1f3e 5d4e d93e 8d79 5bbe b604 853e
00000330: 12a3 03be 748a ae3d 1c6d 30be cb59 76be
00000340: 3b2d 10bd 789b 803e 2271 5e3a da74 61be
00000350: 4a43 5a3c 7812 afbe 74bc f33d 763e 8c3e
00000360: e6d3 193e e4f4 113f 9b4f 303e 5af8 073d
00000370: c6af c2bc a5e7 0bbe 1c3f d6bc 1e61 ce3a
00000380: f05c cc3d fb59 dabc 9335 64bd f4d2 863d
00000390: 10bd b2bd 9789 a9be 1cd1 6dbe a0a6 e83d
000003a0: 42ae a8be 6987 94be 31a3 febd 4d6d 1cbd
000003b0: 2074 babd 1f6c 3a3d 59ca 89bc 86d7 8cbd
000003c0: 6869 103e abe5 033d 860e 0ebe 7a55 9ebe
000003d0: 76a9 b3bb cb87 6a3e 3107 69bd c654 27bd
000003e0: 2930 323e 8329 b23e 11ee dcbd 7d0a f8bb
000003f0: 1b39 3a3c d798 a7bd ced9 06bd 35df 31bd
0.10029152 -0.12840183 0.03901431 -0.20217846 -0.28525323 -0.008039266 0.067630544 0.13119416
-0.25579184 -0.13853598 0.14130381 -0.02789013 -0.15981966 -0.095820434 0.13275142 -0.09782597
-0.27991304 -0.16499159 -0.11027823 -0.021497346 0.025068054 0.055741526 0.01050643 0.20335127
-0.101258166 0.069885105 0.05881391 -0.065854706 -0.09713301 -0.09300354 -0.25489983 0.032939468
0.17445567 0.32965982 0.10624751 -0.41491532 0.116798565 0.46383667 0.41124043 -0.09475769
0.007100199 0.095118076 0.13687924 0.05769846 -0.02239874 0.0110773705 -0.21277748 -0.11116325
0.029411355 0.023488576 -0.2617104 0.010172502 -0.35314876 0.2744656 0.046097685 0.04584409
0.13381514 -0.005653543 0.29508707 0.21003956 -0.1940721 -0.19383909 -0.05718495 -0.13124947
-0.03509423 0.0811832 -0.0074586933 -0.028580938 0.20865026 -0.30752686 -0.18543604 0.2188934
-0.18929492 0.09536418 0.012838846 0.17001551 -0.1536174 -0.083044834 0.06400853 0.16700666
-0.11565446 0.23497532 -0.024659576 -0.22165337 0.06857307 -0.044504073 0.056537453 0.10921033
0.014086528 0.14248583 0.06570035 -0.20160021 0.030318025 0.16831152 0.21892482 0.10216073
0.056724466 0.22201957 -0.029949514 -0.09686741 -0.05129998 -0.23998202 0.01175708 -0.05289234
-0.1526461 -0.2834469 -0.05705893 -0.27891076 -0.029522961 -0.19658041 -0.037017684 -0.18119103
0.11569555 -0.21581754 -0.21784902 -0.09863489 0.0141184125 0.15280558 2.5497771e-05 -0.029439313
-0.28290185 0.07252114 0.07606305 0.017763488 0.22613181 0.21459459 0.06117568 0.03500691
-0.160846 -0.020863399 -0.06799534 0.28351423 0.018549262 0.08877656 0.1306861 -0.063915
0.18938582 -0.13167456 -0.052875087 -0.06117838 0.12556984 -0.22699547 0.19196406 -0.04672418
0.115620136 -0.29784578 0.22064686 -0.09401811 0.054440167 0.19355321 0.31715927 0.044811115
-0.12345041 -0.25167313 0.031022614 0.17204939 -0.13580118 0.07195713 -0.07488055 -0.24325894
-0.08482337 -0.27870047 0.100762844 0.32191443 -0.44111145 -0.08027918 -0.017857775 0.13792391
0.25526577 0.22564125 0.008510389 0.0110613555 -0.22761598 -0.048024565 0.054067135 0.09324038
-0.3721899 0.024846476 0.13120292 0.14301166 -0.25400978 -0.10430761 0.15651494 0.12872349
0.22886246 0.101679035 -0.057401717 -0.047940146 0.21557397 0.006224902 -0.15872258 -0.17487502
0.06919368 0.2347116 -0.10186844 0.116447985 0.23007531 -0.36013308 -0.26820707 -0.04713358
0.1558669 0.424426 -0.21433087 0.25980157 -0.12855175 0.085225016 -0.17229122 -0.24057691
-0.035199385 0.25118613 0.0008485486 -0.22017232 0.013321707 -0.34193778 0.11901179 0.27391404
0.15022239 0.570143 0.17217867 0.03319583 -0.023765456 -0.13662584 -0.02615314 0.0015745496
0.09978664 -0.026654234 -0.055715155 0.06583205 -0.08727467 -0.33112785 -0.232243 0.11359906
-0.32945448 -0.2900956 -0.1243347 -0.038190175 -0.0910418 0.04551327 -0.01682012 -0.06877045
0.1410271 0.03220145 -0.13872728 -0.30924588 -0.005482848 0.22903363 -0.056891624 -0.04085233
0.17401184 0.34797296 -0.10787595 -0.0075696097 0.011366154 -0.08183449 -0.03292256 -0.043425757

bias f4 [32]
00000000: d9fd c7bd d201 053d bfb7 36be 3910 4ebe
00000010: 9bad aa3d f11b 19be 9b4f 00bd e9ee fe3e
00000020: 58d0 c23d b39f a33e 5440 09bd 124b 61be
00000030: fa25 fdbc b0c1 123e 593f 023e 1d67 cfbd
00000040: bf82 aa3d 7dcd 87bd d4be 27bd 79b4 f4bc
00000050: dd8c 1abd 8b30 3fbe 78ed bc3d 66dc 313e
00000060: b879 ecbd 460f d23b 6e66 28be f65c 00be
00000070: 3c05 a0be 0e81 8b3d 5d0e aabd c16c 43bd
-0.097652145 0.03247244 -0.17843531 -0.20123376 0.08333894 -0.14952065 -0.031325918 0.4979165
0.09512395 0.31957778 -0.033508614 -0.22001293 -0.030901898 0.14331698 0.12719478 -0.10127089
0.08325719 -0.06630991 -0.040953472 -0.029871212 -0.037731994 -0.18670861 0.09224981 0.17369232
-0.115466535 0.006410512 -0.16445324 -0.12535462 -0.31253994 0.068117246 -0.08303521 -0.047711138

weight f4 [32, 64]
00000000: 7607 b4bd 459b 283d b831 eeb9 a70b 63be
00000010: acbb 5dbe 1b4a d1bd 61f6 de3e ef89 bcbe
00000020: 8ffa 88bd bee6 e43b 5383 13bd 2ba5 b83d
00000030: 5460 3fbd 847b 71be 962c 083d 29b3 74be
00000040: 0e02 e6bd d024 bb3d 3baf 1e3b f79d b9bd
00000050: c061 c83e 7757 243c 8f3c 41be 9ee7 85be
00000060: 42e0 e73e 1fcc 023e f9eb 33bd e262 7c3c
00000070: bee9 38be 6348 b73d fc7c 163e acaf 813e
00000080: b6af 0e3e cfe5 a13b e707 d63c c780 87be
00000090: 3bd1 973d 0c18 a43d be1a d03d b46c bf3d
000000a0: d781 7dbd a909 c63d 86d1 ab3e 508a 1f3e
000000b0: 5def 6fbe 4c7e 643e 8b4e e5bd 6e97 d6be
000000c0: 25d6 89bd bc4c 30be 420c 3d3d 7909 0b3d
000000d0: f799 bb3d 978f 19be c48b b4be ecde 89be
000000e0: df3f fbbd e8cf c3bd 64aa ff3d 525c cb3e
000000f0: 1d47 403d 9ac4 e03d 5af0 4cbd 3fe9 9cbe
00000100: b963 d7be d35b 8abe 9f31 e1bd e2b6 99be
00000110: 1052 4abe 54b7 463e 7e6d bcbe 88c1 363e
00000120: a864 633e e1f7 0d3e 67e7 7bbe 96e7 a93d
00000130: 5774 6b3d 8466 10be f6f0 50be a46c 0e3e
00000140: 7bb4 0c3e 9aed b73e 55fb 8fbe ec6a 8dbd
00000150: a0f0 f439 45de 963e 9ac7 ddbd cac8 a13c
00000160: 1e8e 1b3f 5b01 4fbe 124f df3e 200e 913e
00000170: bdb3 77bc 2a97 30be 2298 24be 327e 21be
00000180: fe8d ac3e 171e e2bd 7649 39bd b361 f43e
00000190: deb8 97be 35d1 4ebe 371c f53b e9e7 123d
000001a0: 5126 e5bd 4bb0 ea3d 6ceb f63d 6702 15bf
000001b0: 263e 3d3d 4098 063e 37dc 48be 7a7c 373d
000001c0: 94ba 47bd 2297 ce3e 693d 883e f2de 653c
000001d0: b142 d13d f822 24bd 9f87 b8be 9e52 a8bd
000001e0: 589a d7bd 7a2f 93bd 9e24 c73e 026e c63e
000001f0: f5a6 84be 0570 423e 0dc2 afbe a6e8 67bc
00000200: 738d 8e3d 32e7 dcbd b704 8e3e 9fd5 27be
00000210: ccac 3e3e b588 90bd 705c 9e3e 1ab8 88bd
00000220: 5c78 213e 6cd4 b23c 3b1d 4d3e a6bb 8c3b
00000230: 7712 b7be a019 8abe 12ab 8abe b607 253e
00000240: e19e b5be 7a03 6bbd 7151 8cbe 6812 87bd
00000250: c5fa 9e3e fa0d 773e 1575 493e 93ed d03d
00000260: d1b4 2d3e 7c45 75bd 4413 04bd ff11 97be
00000270: 33ef 9e3e 88ce 4abd 713d 65bd 6612 0fbe
00000280: 30dd 28bd 4502 a63d 5307 8ebe b92d 38be
00000290: ab9a b73d 1524 fc3d bf27 03be ad6f 93be
000002a0: 58ef 18be 4277 b0bd 4faa 30be 1302 093d
000002b0: af60 96be e741 87be 3cf3 bc3e 972c 4b3e
000002c0: 7fcd febc de04 8fbe 1da7 bfbe 9d66 323e
000002d0: 0a87 c83d 529b 1cbe a0a1 c33e 86fd cebd
000002e0: 8d9a ce3e 5d6d 273e 7732 2abe 343e 253e
000002f0: 9159 49bd b206 053e d071 7dbd d6ce 3abe
00000300: 0cd7 823e 3548 923e 4d9d 4dbc a9f5 14be
00000310: a86d 96be c0b7 553e 8547 153d 522e 473e
00000320: cef7 8b3d 8b5d afbd 7cfe b2bc d2e8 acbe
00000330: 5b26 e6bd c218 f5bd 3da3 10be e6ec 53be
00000340: ef0e db3d 1680 4cbe 6ed7 ab3d 5910 d7bd
00000350: 83fc 57be 868b 823d 0dea 983d 9436 9dbe
00000360: 1d05 503e e538 763e 6c83 213f fedf f4bd
00000370: d78a 78bc 492a 243e 247e 69be d453 f43d
00000380: f7f1 4bbd d730 10be 4c3e 013d 6165 983e
00000390: 6470 bdbd 548d 66be 6ebc 603e c4a9 a9bd
000003a0: 8432 703b 5c6f c4be 6bcd ad3e 156f 443d
000003b0: 56ac 83be 9c79 a93e 23f3 74bd a659 17be
000003c0: ca7a 9d3e 9852 503e 5ed3 143d e1a6 82be
000003d0: 4ee6 323d 5223 773e 334a 313e 4a2d d3ba
000003e0: d14d 263e 4251 813d b3d4 f7bd 3e99 d83e
000003f0: e70e 563e f118 d43d 0ac5 d03d e8a8 8bbd
-0.087904856 0.0411637 -0.0004543194 -0.22172414 -0.21653622 -0.102192126 0.43547347 -0.36823985
-0.06688415 0.0069855144 -0.036013912 0.09015878 -0.046722725 -0.23582274 0.033245645 -0.23896469
-0.11230861 0.09137881 0.0024213332 -0.090633325 0.39137077 0.010030619 -0.18870758 -0.26153272
0.45288283 0.12773179 -0.043926213 0.015404435 -0.18057916 0.089493535 0.14696115 0.2532934
0.13934216 0.0049407254 0.026126815 -0.26465437 0.074129544 0.08012399 0.10161351 0.09346905
-0.061891403 0.09669811 0.3355829 0.15580106 -0.23431154 0.22313803 -0.111966215 -0.41912407
-0.06730298 -0.17216772 0.046154268 0.03394458 0.09160226 -0.14996181 -0.35262883 -0.26927888
-0.12268042 -0.09561139 0.12483671 0.39718872 0.04694282 0.10974999 -0.050033905 -0.30646703
-0.4206827 -0.2702318 -0.109957926 -0.3002234 -0.19757867 0.19405872 -0.36802286 0.17847264
0.22206366 0.1386409 -0.24599992 0.08296125 0.057483997 -0.14101607 -0.2040442 0.1390863
0.13740723 0.35923463 -0.2812144 -0.06905159 0.00046718586 0.29466453 -0.108290866 0.019749064
0.6076373 -0.20215361 0.43615013 0.2833109 -0.015118537 -0.17245165 -0.16073659 -0.15770796
0.3370208 -0.110408954 -0.045236073 0.4773079 -0.2963323 -0.20196994 0.00748017 0.035865698
-0.11188949 0.114594065 0.12056622 -0.5820679 0.046201847 0.13144016 -0.19615255 0.044796444
-0.04876192 0.4034968 0.26609352 0.014030205 0.102177985 -0.04007241 -0.3604097 -0.08218883
-0.105274856 -0.0718679 0.38895124 0.38755804 -0.25908628 0.18988045 -0.34327736 -0.014154589
0.06960573 -0.107862845 0.27737972 -0.16390084 0.18620604 -0.07057325 0.309299 -0.066757396
0.1576857 0.021829806 0.20030682 0.0042948304 -0.35756275 -0.26972675 -0.2708364 0.16116223
-0.35472777 -0.057376362 -0.27405885 -0.065953076 0.31050697 0.24126425 0.1967357 0.10201564
0.16963507 -0.05988072 -0.032244936 -0.29505917 0.3104187 -0.04951337 -0.0559668 -0.13971862
-0.041226566 0.08105902 -0.27739963 -0.17986192 0.089650474 0.123115696 -0.1280813 -0.2879614
-0.14935052 -0.086164966 -0.17252468 0.033449244 -0.2937064 -0.26417467 0.36904323 0.19841228
-0.031103848 -0.279334 -0.37432185 0.17421956 0.09791382 -0.15293625 0.38209248 -0.101069495
0.40352288 0.16350313 -0.16620813 0.1613701 -0.049157683 0.12990835 -0.06187612 -0.18242964
0.25554693 0.28570715 -0.01254971 -0.14546837 -0.29380536 0.20870876 0.03644516 0.19451264
0.06834374 -0.08562764 -0.021849863 -0.33771378 -0.112377845 -0.11967613 -0.1412477 -0.20695838
0.10696208 -0.19970736 0.08390699 -0.10501165 -0.2109242 0.06374268 0.07466517 -0.30705702
0.2031445 0.24045141 0.6309116 -0.119567856 -0.015169821 0.16031756 -0.22802025 0.119300514
-0.049791303 -0.14081131 0.03155355 0.29764846 -0.092499524 -0.2251485 0.2194688 -0.08284333
0.0036651203 -0.3836621 0.33945784 0.0479575 -0.2571742 0.33100593 -0.059802186 -0.14780292
0.30757743 0.20344007 0.036334388 -0.25517944 0.043676667 0.24134567 0.17313461 -0.001611152
0.16240622 0.06314327 -0.12101116 0.42304415 0.20904122 0.1035632 0.10193832 -0.06819326

weight f4 [40, 32]
00000000: 7c86 e4bd 0612 8dbe 8835 123d 2a41 25bd
00000010: 8e48 d63e f6d5 0d3f 0359 473e c40f 37be
00000020: d0ac 873e 029d 36be 8c8e e3bd a5b2 d83e
00000030: 6b46 d0bd 8b17 883e c5be 84be f28c 983e
00000040: 473c 20bf 8f31 933e bfdb af3e 14c4 a43e
00000050: 8b20 e4be 158f 6fbb 8509 99be d859 b53e
00000060: 3c45 0a3f a781 63bb ded5 983e 9504 78be
00000070: 2860 e03c 07c3 9d3e 4771 a7bd 90f1 113e
00000080: 2d83 94be d196 92be d421 9e3e 8710 48be
00000090: 5c76 0d3e 76c6 e8be d8c9 d43d d711 67bf
000000a0: 8074 10bb 06c4 0a3e ed60 d9be 92ff 6ebe
000000b0: fe45 373f f49d 06bf 6308 8c3e 5df4 83be
000000c0: 0cb3 6c3e 0fe4 273f 870a 9c3e 769c 33bd
000000d0: 13a5 2a3e ca0d 183e 340a b83d 664d d1be
000000e0: bc49 e9be 9104 963e b126 833c 8acf 3dbd
000000f0: 5ca1 10be a0ed ed3d a484 aabe 01b8 d13e
00000100: 229a f3bb 2eee d53e 97ee 08bf 64f8 89be
00000110: 45af ea3d 14c6 eebe 65d4 ffbe dc8c c13e
00000120: ddca 3bbe 93f6 e9be a0d5 c73d 1a39 3abe
00000130: 0ae2 60be 057a edbe 9c33 09bf 9b7d 993e
00000140: 80aa 833d 4fbe bcbe 60a2 0f3f 767c 6fbe
00000150: 6911 423e 6ca3 773e 5299 4d3e f590 1d3f
00000160: e54c d93d ad73 77be e7f9 90bd 7fec 773e
00000170: 302b 37be 3e49 05bf 3062 443f 722a e8be
00000180: 3cf4 253e af96 3ebf b12b d73e 577e 15be
00000190: 3efb 00bf bee3 babe a165 44be 5305 83be
000001a0: 4c8e a0be 6c32 de3e be7a 403f 0174 c8bd
000001b0: 2919 b6bc ed55 bf3e 81f9 ba3d 4b2a 0a3e
000001c0: a51f 74be 6097 7bbe 8fce 31bf 9bb1 aabd
000001d0: 28d8 813e e65d e3bb 463f 2f3e c972 04bf
000001e0: 3c51 fdbd 31af 8e3e d863 a53e d7fa a4be
000001f0: 3a92 923e 5c87 17be 1b7a 8cbc a50d 5b3e
00000200: 50d7 3ebd c95b 88bd ce30 1e3f 6885 f9be
00000210: 0dd3 c1be 955b 59be 68bc 223f b6ca bdbd
00000220: dd78 15be 7b95 183e 3ee9 b63e 4b19 abbe
00000230: bb66 62be 8029 633e 19d3 fabb 0f20 41bb
00000240: ffc2 36bf 1c7c f73e d4a0 03bf 0655 d8be
00000250: e1c5 0c3f ed02 8a3e a0ea 343e 9a30 b1bd
00000260: 4096 19bf e63d 56be 3706 053f 8157 323f
00000270: 1c73 9abf 8745 21bd 922f 763e 9b4a a4bd
00000280: aadf cb3e 9eee 123e 2361 0d3f b15f c73e
00000290: b2e1 3c3e a034 b8be bcab a9be 315b 1e3f
000002a0: 7337 9fbd 0afb 18bf 0b56 593e f840 a23e
000002b0: ee6a 8abe 6bb7 a83e befa b63e c5e5 9ebe
000002c0: 5c1e debe 4672 fb3e 121d eebe f32c fc3e
000002d0: 89e9 dcbd 2afb febe 645f 2dbd 0d6a 593e
000002e0: 8a0b ddbe aa26 83be f14a 983e fcd3 233f
000002f0: 0ad0 b9bd 9812 07bf 56d1 763d 749e 9e3d
00000300: ea03 053f 652c 04bf a45f 923e f2a6 34bd
00000310: b865 50be a870 dabe b7a3 febc c0f2 b3bd
00000320: ec97 d63d e2b2 8c3e 92e7 f63e 7fbf 823e
00000330: fcd3 c53e 1b74 253e 5aba ecbe ba6c 7bbe
00000340: 17aa 8e3e 100b c9be 783d 253d 1af3 1ebe
00000350: f470 f63e 3a9e eebd fa5f 833e e073 11bf
00000360: 8ecb 093e 4d81 343f 739b b13d 53f4 f0be
00000370: 6bf9 dfbd aa56 3ebe 1688 9abe b516 f53e
00000380: 7591 603d 1a41 babe 8e1b 9f3d bf18 c7bc
00000390: a06f 3b3d 8462 aa3d ec16 173e f1cd 963d
000003a0: a89b 1d3f 34e2 d83d 8c16 863e 9d38 a63e
000003b0: 21fd d13d aac4 c03d 0d17 d73d 2337 d23e
000003c0: 4586 62be 3e2c 71bc bad8 983d 1493 453d
000003d0: 9b6a c0bd 6684 29bd c51c f43a 5d0d ce3e
000003e0: d51d f93e ee33 41bd 3048 34bc 67f4 8a3e
000003f0: 5074 073f 3896 ed3c ffc0 a93e 8575 073e
-0.11158463 -0.27552813 0.035695583 -0.04034535 0.4185223 0.55404603 0.19467549 -0.17877108
0.26499033 -0.17833331 -0.11111173 0.42323795 -0.10169681 0.26580462 -0.25926796 0.29795033
-0.62591976 0.28748748 0.3434734 0.32180846 -0.44556078 -0.003655379 -0.29890075 0.35420108
0.54011893 -0.003471473 0.29850668 -0.24220498 0.0273896 0.30812857 -0.08175903 0.14252305
-0.2900633 -0.2863069 0.30885184 -0.19537555 0.13814682 -0.45463914 0.10390061 -0.90261596
-0.0022042096 0.1355134 -0.4245676 -0.2333968 0.71591175 -0.5258477 0.2735015 -0.25772372
0.23115176 0.65582365 0.30476782 -0.043850385 0.16664533 0.1484901 0.08986321 -0.40879363
-0.45564067 0.2930036 0.01600966 -0.046340503 -0.14124054 0.11617589 -0.33304322 0.40960696
-0.0074341455 0.4178328 -0.5348906 -0.2694732 0.11459211 -0.46635497 -0.49966732 0.3780278
-0.18339105 -0.45695934 0.097575426 -0.18185845 -0.21961227 -0.46382156 -0.53594375 0.29978642
0.06429005 -0.36863944 0.5610714 -0.23387322 0.18951954 0.24183434 0.20078018 0.6154931
0.106103696 -0.2416522 -0.07078915 0.2421131 -0.17887568 -0.52064884 0.7671232 -0.45344883
0.1620645 -0.74448675 0.4202552 -0.14598976 -0.50383365 -0.36501878 -0.19179393 -0.2559
-0.31358564 0.43397844 0.7518729 -0.09787751 -0.022228794 0.37370244 0.0912962 0.13492696
-0.23840196 -0.24569464 -0.6945581 -0.08334657 0.25360227 -0.006938684 0.1711398 -0.5173765
-0.1236901 0.27868035 0.32302737 -0.32222626 0.28627187 -0.14797729 -0.017148068 0.21391924
-0.046592057 -0.06658132 0.6179322 -0.48734593 -0.3785633 -0.21226342 0.63568735 -0.0926718
-0.14596887 0.14900772 0.35724825 -0.33417735 -0.22109501 0.221838 -0.0076545593 -0.0029468571
-0.7139129 0.48336875 -0.5141728 -0.42252368 0.5498944 0.26955357 0.17667627 -0.08651848
-0.5999489 -0.2092205 0.5196261 0.6966477 -1.2066379 -0.039372947 0.24041584 -0.08022042
0.3981908 0.14348838 0.55226344 0.38940194 0.18445471 -0.3597765 -0.33138835 0.618579
-0.07774248 -0.59758055 0.21224229 0.31690192 -0.27034706 0.32952437 0.35738176 -0.31034675
-0.43382537 0.4911062 -0.46506554 0.49253044 -0.10786731 -0.49800998 -0.0423273 0.21231861
-0.43172866 -0.25615436 0.29744676 0.6399534 -0.090728834 -0.52762747 0.060258232 0.07745066
0.519591 -0.5163024 0.28588593 -0.044104524 -0.20351303 -0.42664075 -0.031083925 -0.08786535
0.104781955 0.27480227 0.4822355 0.25536725 0.38638294 0.16157572 -0.46235925 -0.24553195
0.27864143 -0.39266253 0.040341824 -0.15522423 0.4813305 -0.11651273 0.25659162 -0.56817436
0.13456556 0.705098 0.08672228 -0.47061405 -0.109362446 -0.18587747 -0.3018195 0.47868887
0.05482622 -0.36377794 0.077689275 -0.024303792 0.04576075 0.083195716 0.14754838 0.07363499
0.6156564 0.1059002 0.26189077 0.32465068 0.10253359 0.09412511 0.105024435 0.4105769
-0.22121532 -0.014720021 0.07463212 0.048235968 -0.093953334 -0.04138603 0.0018624297 0.4024457
0.48655573 -0.047168665 -0.011003539 0.2713959 0.52911854 0.029002294 0.33155057 0.13228424

bias f4 [40]
00000000: d9c2 b8be d03d 2dbe ab21 bb3e 1a0e adbb
00000010: 2a63 ed3d d07c f03e d67e 10bb 2d04 34bd
00000020: 0691 a43d 5bbc 10bc 4c57 d53e 20f5 babe
00000030: 6969 07bf a9dc b8be 4285 8cbe 9386 9ebe
00000040: d9ad a93e 00a1 3abe ffb2 31bd caeb 1e3e
00000050: 4237 36be 3020 0dbd 0fcb 943e 0ef3 d9bd
00000060: d506 403e 9902 b8be b244 e5bd 1401 60be
00000070: 755a a73e 94c3 63be 8a1c b63d 652c 5ebe
00000080: aaaf 77be 8997 983c 2870 863e 4c63 d0be
00000090: 4412 663d 44ed 60be 7d09 6bbe c019 4ebd
-0.36086157 -0.16918111 0.36549124 -0.005281222 0.1159118 0.46970224 -0.0022048256 -0.043949295
0.080354735 -0.00883397 0.41668165 -0.3651514 -0.5289522 -0.3610585 -0.27445418 -0.30962047
0.33140448 -0.18225479 -0.043383595 0.15519634 -0.17794517 -0.034454525 0.2906117 -0.10642062
0.18752606 -0.35939482 -0.11194743 -0.21875411 0.326862 -0.22242576 0.08892162 -0.21696623
-0.24188104 0.018626945 0.26257443 -0.40700758 0.056169763 -0.2196551 -0.22952838 -0.050317526
